jarvis.onnx (onnx, 205430 bytes, 9 tensors)

layer1.weight f4 [32, 1536]
0	0x3d0a1fa5	0.033721585
1	0xbc2e98c8	-0.010656543
2	0xba249c02	-0.00062793505
3	0xbc8f5849	-0.017498152
4	0x3bce573a	0.0062970193
5	0x3ce9e2f9	0.028550612
6	0x399e97e1	0.00030249267
7	0x3bc84dc2	0.006112785
8	0x3d433413	0.047657084
9	0x3cc27fed	0.02374264
10	0xbc53ae47	-0.012919969
11	0x3ce51466	0.027963828
12	0x3adea8cd	0.0016987562
13	0xbd59fe6b	-0.053221148
14	0xbc6d725a	-0.014492596
15	0x3d93f04b	0.072235666
16	0xbd0b3d60	-0.03399408
17	0x3c135c0a	0.008994112
18	0xbcec35be	-0.02883422
19	0x3d322ee2	0.043501742
20	0x3c96223b	0.01832687
21	0xbb87ff2f	-0.0041502933
22	0x3a98ed8d	0.0011667475
23	0xbbb07db0	-0.005386077
24	0xbc7b61e9	-0.015343168
25	0x3c03f2f9	0.008053535
26	0xbbf5bd5d	-0.0074993805
27	0x3c3214b4	0.010869194
28	0xbd9b8d07	-0.07595258
29	0x3d568567	0.052373316
30	0xbd9341ae	-0.07190262
31	0xbbe9602b	-0.00712206
32	0xbb74a809	-0.0037331602
33	0x3c2a6355	0.010399659
34	0xbc9c256c	-0.019060813
35	0xbc127212	-0.008938329
36	0x3c0bfa16	0.008543512
37	0x3c8d6ed0	0.017264754
38	0x3c92ed1c	0.017935328
39	0x3bec994b	0.0072204224
40	0xbbf63446	-0.0075135557
41	0xbcd2c131	-0.025726886
42	0x3c9b8a27	0.018986775
43	0xbcfbce00	-0.030737877
44	0xbcd9350e	-0.026514556
45	0x3c9189b1	0.017765852
46	0xbc05e292	-0.008171694
47	0xbdac0139	-0.08398671
48	0x3c8b8337	0.017030342
49	0x3d1a84e8	0.037724406
50	0xbd360f75	-0.044448335
51	0xbcbf4cd8	-0.023352072
52	0x3d4e17dc	0.050315723
53	0xbd1e0a58	-0.038584083
54	0xbce76152	-0.028244648
55	0xb9669cf7	-0.00021992983
56	0xbcfbd646	-0.030741822
57	0x3cf3318a	0.029686708
58	0xbcf51318	-0.029916331
59	0xbd0784f3	-0.033085775
60	0x3c5de0b5	0.013542344
61	0xbd3b391d	-0.045708764
62	0x3b5009f4	0.0031744214
63	0xbb85f121	-0.0040875827
64	0xba45b970	-0.0007542586
65	0x3c50e6a4	0.0127503015
66	0xbd81211b	-0.063051425
67	0xbbbe375e	-0.00580494
68	0xba92ab68	-0.0011189999
69	0x3c77d604	0.015126709
70	0x3d00a4e7	0.031407263
71	0xbd0cd8da	-0.034386493
72	0x3c8827e1	0.016620578
73	0xbc8a0053	-0.016845858
74	0x3b932683	0.004490675
75	0xbabe62aa	-0.0014525254
76	0x3c8cfdb0	0.017210811
77	0xbdafe57e	-0.08588694
78	0xbc2ac355	-0.010422547
79	0x3bba2722	0.0056809345
80	0xbd28dcbd	-0.041226137
81	0x3d2869ef	0.04111665
82	0x3cdfee9f	0.027335463
83	0x3b86aec1	0.0041101878
84	0x3c50f5f1	0.0127539495
85	0x3da4b86f	0.080429904
86	0x3c99dc87	0.018781913
87	0xbd898105	-0.06714062
88	0xbd13f6c6	-0.036124013
89	0x3a34b8c6	0.00068939885
90	0xbc901c33	-0.017591571
91	0x3c8f8c92	0.017523084
92	0xb9db0054	-0.0004177118
93	0xbcc024fc	-0.023455136
94	0xbccfdf3a	-0.025374997
95	0x3c4240bb	0.011856253
96	0x3baa083c	0.00518897
97	0x3c9e6fbf	0.019340394
98	0x3c16be7b	0.0092006875
99	0x3c70745b	0.014676179
100	0x3b8edbfd	0.0043597207
101	0x3d03a44e	0.032139115
102	0xbcb245a5	-0.021761725
103	0x3b2df9ef	0.0026546677
104	0x3c861c3d	0.016370887
105	0x3d27b023	0.04093946
106	0xbb681200	-0.003541112
107	0xbcc33721	-0.023829998
108	0x3d2b79e3	0.041864287
109	0xbde3c8bd	-0.11122272
110	0xbd21a283	-0.039461624
111	0xbc70effd	-0.014705655
112	0xbca2eb53	-0.019887602
113	0xbcdce3ff	-0.026964186
114	0x3cfde188	0.03099133
115	0x3cd430ec	0.025902234
116	0x3c8b30e5	0.016991088
117	0xbca5ba08	-0.020230308
118	0xbcd206b7	-0.025637968
119	0x3c3a7fc5	0.011383002
120	0x3b6aeb27	0.0035845728
121	0x3d1a8f63	0.0377344
122	0xb954784b	-0.00020262708
123	0x3a0aa215	0.00052884343
124	0xbd8e5947	-0.06950622
125	0x3d7a1e45	0.061064024
126	0xbd66837f	-0.05627775
127	0x3cf7f2f5	0.030267218
128	0xbc30db49	-0.010794469
129	0xbce71e49	-0.028212683
130	0xbc0d8f09	-0.008640059
131	0x3c056c8b	0.008143554
132	0x3ca7f0cf	0.020500569
133	0xbc06b91a	-0.008222843
134	0x3d561de6	0.052274607
135	0x3cc21651	0.023692282
136	0x3c95e785	0.018298874
137	0x3cdba59a	0.026812363
138	0x3d102865	0.035194773
139	0x3c8bc1d4	0.017060198
140	0xbd204fce	-0.039138608
141	0xbcad568d	-0.021159435
142	0xbb99df5f	-0.0046958174
143	0xbd0b21da	-0.03396783
144	0xbc6f7101	-0.014614345
145	0xbc1486fa	-0.009065384
146	0xbd274f2e	-0.040846996
147	0x3cc3a2ae	0.023881283
148	0x3ccd1c91	0.025038036
149	0xbd0e2669	-0.0347046
150	0x3c62aa87	0.013834602
151	0xbc833496	-0.016016286
152	0xbd09bf16	-0.0336295
153	0x3cc416a5	0.023936579
154	0xbd214a10	-0.039377272
155	0x3d4c1ecf	0.04983407
156	0x3d834b18	0.06410807
157	0x3c1be5a5	0.009515201
158	0x3d09be54	0.033628777
159	0xbd5746bf	-0.052557703
160	0x3bc25d0f	0.0059315036
161	0x3bff42a1	0.007789925
162	0xbcccce90	-0.02500084
163	0xbd2c5aec	-0.042078897
164	0x3c61138a	0.013737569
165	0x3ac968ea	0.001536635
166	0xbd881f76	-0.06646626
167	0xbcd85429	-0.026407318
168	0xbcc810da	-0.024422098
169	0xbd30c673	-0.043158006
170	0xba113e68	-0.00055406103
171	0x3c0149f0	0.007891163
172	0xbcbef4eb	-0.023310145
173	0x3b2892ee	0.0025722343
174	0xbd1651c0	-0.036699057
175	0xbc8e4eaa	-0.017371494
176	0xbcd9ad1a	-0.0265718
177	0x3d96bcc9	0.07360227
178	0x3c705d93	0.014670747
179	0xbd178aa9	-0.03699747
180	0xbcc2a032	-0.023758028
181	0x3d52c41c	0.051456556
182	0x3af8e316	0.0018988575
183	0xbc3fcef0	-0.011707053
184	0xbc45ba1e	-0.0120683
185	0x3c34c8e3	0.011034223
186	0x3d2288a3	0.03968109
187	0x3afe3709	0.0019395064
188	0x3a1205de	0.0005570332
189	0xbab837cf	-0.0014054718
190	0xbce52754	-0.027972855
191	0x3d2599dd	0.04042994
192	0xbcf90334	-0.030397035
193	0x3c24fb6d	0.01006971
194	0x3d6d099f	0.057870504
195	0xbd528c09	-0.05140308
196	0xbd5104ee	-0.051030092
197	0xbb0c8124	-0.0021439278
198	0x3d305df8	0.043058366
199	0xbc48145f	-0.012211888
200	0x3cd2980d	0.02570727
201	0x3d92f17a	0.07174964
202	0xbd3aa4e9	-0.045567427
203	0xbd24c18b	-0.04022364
204	0x3cf13e84	0.029448755
205	0xbd8da344	-0.06915906
206	0x3bf5b7a5	0.007498699
207	0xbdb9860c	-0.090587705
208	0x3cf7a986	0.030232202
209	0xbc9d57c4	-0.019206889
210	0xbc32ab8e	-0.01090516
211	0x3bea5c2a	0.0071521
212	0xbd0762da	-0.033053257
213	0xbcad691c	-0.021168284
214	0xbd4d77ee	-0.050163202
215	0xbc8a8aa4	-0.016911812
216	0x3d4cf655	0.050039608
217	0xbc56d72c	-0.013112824
218	0xbc4612d4	-0.01208945
219	0x3cb9c46e	0.022676673
220	0xbd035639	-0.03206465
221	0x3d8fbfa1	0.07018972
222	0xbcc2e803	-0.023792272
223	0xbbdd3921	-0.006751195
224	0xbd18af38	-0.037276477
225	0xbd2378d6	-0.03991016
226	0xbd10cd22	-0.03535188
227	0xbc0a2636	-0.008431962
228	0xbc16255f	-0.009164183
229	0x3c70ec13	0.014704722
230	0xbc741465	-0.014897441
231	0x3ca0fab0	0.019650787
232	0x3d7cf842	0.061760195
233	0x3d185fc6	0.03720071
234	0x3d215ded	0.039396215
235	0x3c755999	0.014974975
236	0xbd14270a	-0.036170043
237	0xbcd78829	-0.026310043
238	0xbc5ab422	-0.013348611
239	0x3d4121de	0.04715144
240	0x3d673637	0.056448188
241	0xbb1f3843	-0.002429501
242	0xbd0dca5a	-0.034616806
243	0x3d6200e7	0.05517664
244	0x3ca8cbc6	0.02060498
245	0x3bc4467d	0.005989848
246	0xbcb23fd0	-0.021758944
247	0xbce33a39	-0.027737724
248	0x3bde100d	0.0067768157
249	0x3c5577a7	0.013029016
250	0xbb3e060b	-0.00289953
251	0xbaf1e3bd	-0.0018454712
252	0x3cc01b31	0.023450466
253	0x3d327cec	0.043576166
254	0xbb50f8d3	-0.0031886592
255	0xbd296867	-0.04135933

layer1.bias f4 [32]
0	0x3c80a72c	0.015704714
1	0xbc837ffd	-0.01605224
2	0x3cb94ef1	0.02262065
3	0xbbf5e1c3	-0.0075037195
4	0x3c9fce64	0.019507594
5	0x3ce17020	0.027519286
6	0xba8c33f8	-0.001069664
7	0x3cb7c928	0.022434786
8	0x3a67e75a	0.0008846425
9	0x3ca0a944	0.019611962
10	0x3b97c8b3	0.0046320795
11	0xba0b1d2a	-0.0005306775
12	0x3b5e148e	0.0033886763
13	0x3b058942	0.0020376001
14	0x3d2f17ab	0.04274718
15	0x3cb90d89	0.022589462
16	0x3c566ee5	0.013087963
17	0x3cd2c287	0.025727523
18	0x3c74c96d	0.014940602
19	0xbc3b5b2e	-0.011435313
20	0x3c555179	0.013019913
21	0x3c922a85	0.01784254
22	0xbca62126	-0.020279478
23	0x3c9b3edf	0.018950878
24	0x3d0ddde9	0.03463546
25	0xbb8ea3c7	-0.00435302
26	0x3c3ba3a4	0.011452589
27	0x3c2f1cae	0.01068799
28	0xbcb6be8e	-0.02230766
29	0x3cf67185	0.030083427
30	0x3b88d3ea	0.0041756527
31	0x3c8cf86e	0.017208304

layernorm1.weight f4 [32]
0	0x3f7e7b8d	0.99407274
1	0x3f687357	0.90800995
2	0x3f816d4c	1.011148
3	0x3f6ebf87	0.93261
4	0x3f853f12	1.0409873
5	0x3f8ec9ca	1.1155331
6	0x3f677971	0.9041968
7	0x3f7078bd	0.9393423
8	0x3f7e59a9	0.9935556
9	0x3f7bca1d	0.98355275
10	0x3f710a03	0.941559
11	0x3f6a2c48	0.9147382
12	0x3f6be3ba	0.9214436
13	0x3f8430d7	1.0327405
14	0x3f731962	0.94960606
15	0x3f85ce99	1.0453674
16	0x3f820e31	1.0160581
17	0x3f80952b	1.0045522
18	0x3f788a50	0.9708605
19	0x3f884788	1.064683
20	0x3f707d54	0.93941236
21	0x3f7a7f6c	0.9785068
22	0x3f85f01b	1.0463899
23	0x3f83e3df	1.0303916
24	0x3f8169aa	1.0110371
25	0x3f5eba1a	0.8700272
26	0x3f6cea44	0.9254496
27	0x3f8aef2c	1.085424
28	0x3f721c38	0.9457431
29	0x3f668c94	0.90058255
30	0x3f8b823a	1.0899117
31	0x3f92a4ea	1.1456578

layernorm1.bias f4 [32]
0	0xba7da16a	-0.00096752367
1	0xbd860d64	-0.06545523
2	0xbd9187ed	-0.07106004
3	0xbcbc6513	-0.022997415
4	0xbbed7e3d	-0.007247715
5	0xbc3f91d3	-0.011692482
6	0xbd5edf1e	-0.054412
7	0x3ba3382f	0.004981063
8	0xbd0cf123	-0.034409653
9	0xbd0a2174	-0.03372331
10	0xbd758494	-0.05994089
11	0xbda3e04a	-0.08001764
12	0x3c10e7a2	0.008844288
13	0xbc2ce67d	-0.010553
14	0xbbc34bae	-0.0059599495
15	0x3d2f1c61	0.042751674
16	0x3bec5115	0.007211814
17	0x3b2b1739	0.002610637
18	0x3b842e2e	0.0040338254
19	0x3cecca75	0.028905133
20	0xbd9b4c65	-0.075829305
21	0x3c50e40f	0.012749686
22	0xbc2b88e4	-0.010469649
23	0xbcf9f493	-0.03051213
24	0xbc63f20d	-0.01391269
25	0xbdfa47c4	-0.122207195
26	0xbdd20db2	-0.102565184
27	0x3c974e42	0.018469933
28	0xbd1649b3	-0.03669138
29	0xbdcaecf4	-0.099084765
30	0x3c01f7f5	0.007932653
31	0xbd34e2a0	-0.04416144

blocks.0.fcn_layer.weight f4 [32, 32]
0	0xbe510038	-0.2041024
1	0x3c9ed1ac	0.019387089
2	0x3cedb9c8	0.029019251
3	0xbd69f2ff	-0.057116505
4	0xbd151c86	-0.036404155
5	0x3df02178	0.11725134
6	0x3dfca58c	0.12336263
7	0xbc6ac9d3	-0.014330345
8	0x3df06421	0.11737848
9	0x3e442a32	0.19156721
10	0x3e076010	0.13220239
11	0x3d4cdd2c	0.050015613
12	0x3d969857	0.07353275
13	0xbd73ea7f	-0.059549805
14	0x3d5277af	0.05138367
15	0xbe259cc5	-0.16173084
16	0x3d9885c2	0.07447387
17	0xbd7026cd	-0.058630753
18	0xbe45e626	-0.19326076
19	0xbdafbd2a	-0.08581002
20	0x3d9320bf	0.0718398
21	0x3db0cb11	0.08632482
22	0x3d7b8c7a	0.061413266
23	0xbe1c906d	-0.15289469
24	0x3db68fbf	0.08914136
25	0x3dab1e67	0.08355408
26	0x3e0c910c	0.13727206
27	0x3b734473	0.0037119656
28	0x3e576409	0.21034254
29	0x3e0165f3	0.12636547
30	0x3df2245e	0.11823343
31	0xbdb24582	-0.08704664
32	0x3e0f6c3c	0.14006132
33	0xbe39af90	-0.18133378
34	0xbe0e693e	-0.13907334
35	0xbd9d010f	-0.076662175
36	0xbe2b3699	-0.16720046
37	0xbe5ba645	-0.21450146
38	0x3d88f364	0.06687048
39	0x3dda1670	0.10648811
40	0xbe315469	-0.17317356
41	0x3d1d1421	0.038349275
42	0x3db2d812	0.087326184
43	0x3e1430f7	0.14471804
44	0x3cbe231c	0.0232101
45	0x3dabc196	0.08386533
46	0x3d71743a	0.058948733
47	0xbd9ec460	-0.07752299
48	0x3e16c038	0.14721763
49	0xbd082d02	-0.033246048
50	0x3df43a63	0.11925199
51	0xbe08b32a	-0.13349596
52	0xbdc8401f	-0.09777855
53	0xbda9c243	-0.082890056
54	0xbdf5454d	-0.11976109
55	0x3e0f2c3a	0.13981715
56	0x3d24c8d1	0.040230576
57	0x3dd3736e	0.10324751
58	0x3c6a92df	0.014317243
59	0xbe0e9459	-0.13923778
60	0x3dd80f64	0.105498105
61	0x3dd6c78b	0.104872786
62	0xbc1cce62	-0.00957069
63	0x3e9a5fad	0.3015112
64	0xbd2a5d59	-0.04159293
65	0xbd998c6f	-0.07497489
66	0xbd1ea43d	-0.03873085
67	0xbd5a9676	-0.053366147
68	0xbd8ff57e	-0.07029246
69	0xbd469211	-0.048479144
70	0x3e1bc990	0.15213609
71	0xbdafb047	-0.08578544
72	0x3df13871	0.117783435
73	0xbc807804	-0.015682228
74	0x3b61e2ea	0.0034467527
75	0x3cb102ba	0.021607745
76	0x3dd76a6b	0.105183445
77	0xbc63f0fd	-0.013912437
78	0x3d91abad	0.07112823
79	0xbe095f13	-0.13415174
80	0xbd8de44e	-0.06928311
81	0xbe14478d	-0.1448042
82	0xbdd4c702	-0.1038952
83	0x3d66a139	0.056306098
84	0x3daca122	0.08429171
85	0x3e323778	0.17403972
86	0xbc867e85	-0.016417751
87	0xbe30fc81	-0.17283823
88	0xbd9450c9	-0.07241971
89	0x3d587f7f	0.052855965
90	0x3df0f25f	0.117649786
91	0xbdaa9a14	-0.08330169
92	0x3e376510	0.17909646
93	0x3d435e00	0.047697067
94	0xbd5d6a49	-0.05405644
95	0x3d71688d	0.058937598
96	0xbda1f47a	-0.07907958
97	0xbe131929	-0.14365067
98	0x3e72097c	0.2363643
99	0x3d811400	0.06302643
100	0xbdb7584c	-0.08952388
101	0x3e0f442c	0.1399085
102	0xbdc17909	-0.09446914
103	0x3daa82a8	0.08325702
104	0xbd80878d	-0.06275854
105	0x3db109b4	0.08644429
106	0xbd89715d	-0.067110755
107	0xbe0567c9	-0.13027872
108	0xbc3a9182	-0.011387231
109	0xbd7e4e13	-0.062086176
110	0xbe069831	-0.13143994
111	0x3c31ffe3	0.010864231
112	0xbe13bcf8	-0.14427555
113	0x3ca93125	0.020653317
114	0x3b450df1	0.0030068124
115	0x3e5c69ce	0.21524736
116	0x3d8fce47	0.07021766
117	0x3e036406	0.12831125
118	0x3da828ff	0.082109444
119	0xbd5f03e0	-0.054447055
120	0xbbbb90a2	-0.0057240287
121	0x3c37beaa	0.011214891
122	0x3ddd0abf	0.10793065
123	0x3e6bb17b	0.23016922
124	0xbde4e4e4	-0.1117647
125	0x3d99d730	0.07511747
126	0x3e20f61f	0.15718888
127	0xbe501867	-0.20321809
128	0x3e295f32	0.1654022
129	0xbc8c969b	-0.017161658
130	0x3d525ee6	0.051360033
131	0xbdc46d1a	-0.09591122
132	0x3d3ca17d	0.046052445
133	0x3d88902a	0.06668122
134	0x3db90adb	0.09035274
135	0xbd231b05	-0.03982069
136	0xbd82fe83	-0.063962005
137	0xbad76287	-0.0016432562
138	0x3d858514	0.06519523
139	0xbdb47218	-0.08810824
140	0x3e06d485	0.13167007
141	0xbd69fcb9	-0.05712578
142	0xbe2a8d38	-0.16655433
143	0x3d5d2b0e	0.05399614
144	0x3d69e98d	0.057107497
145	0xbe33e707	-0.17568599
146	0xbd472e0b	-0.048627894
147	0x3be1375d	0.006873055
148	0x3cd73cdb	0.026274135
149	0x3ce0fc00	0.027463913
150	0x3dd9156d	0.1059979
151	0xbd05ca72	-0.03266377
152	0x3dd69e30	0.104793906
153	0x3d44e56e	0.048070364
154	0x3d33b450	0.04387313
155	0x3dad08c5	0.08448938
156	0xbc160972	-0.009157525
157	0xbd908a13	-0.070575856
158	0x3e23998d	0.15976544
159	0xbceef9a4	-0.029171772
160	0x3d419904	0.047265068
161	0x3e068503	0.13136677
162	0xbe15831f	-0.146008
163	0xbdd03cff	-0.10167884
164	0xbdbf9f14	-0.093565136
165	0xbe630453	-0.22169618
166	0x3d229d81	0.03970099
167	0xbe17ef40	-0.1483736
168	0xbe1129d8	-0.14176118
169	0xbd7b899c	-0.06141053
170	0xbe26b6e8	-0.1628071
171	0xbd9189ad	-0.07106338
172	0xbc65f192	-0.014034646
173	0x3e65acdf	0.22429226
174	0x3d11423d	0.03546356
175	0x3d7d1a20	0.061792493
176	0x3e3ea57a	0.18617812
177	0x3e11b75e	0.14230105
178	0x3e2bcd5b	0.16777556
179	0xbd7d5381	-0.061847214
180	0x3dc5590e	0.096361265
181	0x3e32fbe1	0.17478897
182	0xbe849f06	-0.25902575
183	0x3e547079	0.2074603
184	0xbcaa15eb	-0.020762404
185	0xbdac91a8	-0.08426219
186	0xbdf27dcc	-0.118404
187	0x3dc629b7	0.09675925
188	0x3dbaad2d	0.09115062
189	0xbdb3b8fb	-0.087755166
190	0xbe94b79e	-0.2904634
191	0x3e9af2f4	0.30263484
192	0xbd81ef4c	-0.063444704
193	0xbde0e6e8	-0.10981542
194	0x3ce82ff9	0.028343188
195	0x3d73218b	0.05935816
196	0x3e872123	0.2639247
197	0x3dc8fac7	0.09813457
198	0xbde0b75f	-0.10972475
199	0x3d87083e	0.06593369
200	0x3d4aec50	0.04954177
201	0xbdefb947	-0.11705261
202	0x3b7a9ed5	0.0038241644
203	0xbc303b8b	-0.010756384
204	0xbd6efa5c	-0.05834423
205	0x3e0b0862	0.13577417
206	0xbdc0a7a6	-0.094069764
207	0x3d559c44	0.05215098
208	0x3df3bbaa	0.119010285
209	0x3dc8e666	0.0980957
210	0x3d679afe	0.056544296
211	0x3cad7dd7	0.02117817
212	0xbd86ddc3	-0.065852664
213	0xbc35769a	-0.01107564
214	0xbe06683c	-0.131257
215	0x3dd6ca18	0.10487765
216	0xbd3536dd	-0.044241775
217	0xbcf00542	-0.029299382
218	0x3e191a7a	0.14951506
219	0x3cc05caa	0.023481686
220	0x3c4af1f2	0.012386786
221	0xbde6b2f8	-0.11264604
222	0xbc9f0f4a	-0.01941647
223	0x3dbb2c25	0.09139279
224	0x3d5d582b	0.05403916
225	0x3d588d53	0.052869152
226	0xbdac6974	-0.08418551
227	0xbd9820e4	-0.074281484
228	0xbd8e980f	-0.069625966
229	0x3d57b4dc	0.052662715
230	0x3d4b29b3	0.049600314
231	0x3e10c91e	0.1413922
232	0xbdbf4b34	-0.09340516
233	0x3dadfa27	0.084949784
234	0xbd90738f	-0.07053291
235	0xbe22be55	-0.15892918
236	0xbd3b5611	-0.045736376
237	0xbd8f658c	-0.070017904
238	0x3db59b11	0.08867467
239	0xbc75d1b8	-0.015003614
240	0x3db4afec	0.08822617
241	0x3dcb30be	0.09921406
242	0x3df41ddd	0.119197585
243	0xbe3db526	-0.18526134
244	0x3d19569d	0.037436116
245	0x3dfc73a0	0.12326741
246	0xbe2c12fa	-0.16804114
247	0x3e3540dc	0.17700523
248	0xbd9a7b97	-0.07543104
249	0xbdbf69c5	-0.09346346
250	0x3dab9c13	0.08379378
251	0x3b45db83	0.0030190654
252	0x3dfe406c	0.12414631
253	0xbdf386cf	-0.11890947
254	0xbe5ae6a3	-0.21377043
255	0x3e453569	0.19258656

blocks.0.fcn_layer.bias f4 [32]
0	0xbe2273e2	-0.15864518
1	0x3de1a325	0.110174455
2	0x3dc0126c	0.09378514
3	0xbdc32d8a	-0.0953017
4	0xbe0288be	-0.12747476
5	0x3d581e1f	0.0527631
6	0xbcb3bc95	-0.021940509
7	0x3e0ca4ff	0.13734816
8	0x3d1f0b6f	0.038829263
9	0x3db3e357	0.08783596
10	0x3cd9c65e	0.026583847
11	0x3c3ef882	0.011655929
12	0xbe0867e0	-0.13320875
13	0xbde336ce	-0.110944375
14	0xbded8e77	-0.11599439
15	0xbda36d97	-0.07979887
16	0x3e12a7d9	0.14321841
17	0x3daa7d34	0.08324662
18	0x3e339f91	0.17541339
19	0x3dcbe995	0.099566616
20	0x3d738daf	0.059461292
21	0xbe1af0ee	-0.1513097
22	0x3d456c9d	0.048199285
23	0x3df72b55	0.12068812
24	0xbd3a2835	-0.0454485
25	0xbc83a296	-0.016068738
26	0x3dc87f23	0.097898744
27	0x3cea0ef5	0.028571585
28	0xbcd8b14a	-0.026451726
29	0x3dfdb034	0.12387124
30	0xbe190144	-0.14941889
31	0xbdd4a20b	-0.1038247

blocks.0.layer_norm.weight f4 [32]
0	0x3f9294d0	1.1451664
1	0x3fa7b239	1.3101264
2	0x3f8488e6	1.0354278
3	0x3f89bdd4	1.0761056
4	0x3f835244	1.025948
5	0x3fa2828d	1.2696091
6	0x3f7ecc90	0.9953089
7	0x3fa952fb	1.3228449
8	0x3f971620	1.1803627
9	0x3fa4c41f	1.2872351
10	0x3f817164	1.0112729
11	0x3f9389ee	1.1526468
12	0x3f8f1134	1.1177125
13	0x3f9318c4	1.1491933
14	0x3f8831bc	1.0640178
15	0x3fadd468	1.3580446
16	0x3f88fdc5	1.0702444
17	0x3f8a735b	1.0816454
18	0x3fa781a6	1.308644
19	0x3f8b53b4	1.0884919
20	0x3f87e6be	1.0617292
21	0x3f6be4a9	0.9214578
22	0x3f91f23d	1.140205
23	0x3f7cd4a1	0.98761946
24	0x3faea1af	1.3643092
25	0x3fa446e8	1.2834139
26	0x3f95d902	1.170685
27	0x3f8a7eef	1.0819987
28	0x3f792903	0.97328204
29	0x3f604a9c	0.87613845
30	0x3f959166	1.1684997
31	0x3f88b5cc	1.068048

blocks.0.layer_norm.bias f4 [32]
0	0x3d3a1123	0.0454265
1	0x3e583697	0.21114574
2	0xbd401c5b	-0.046902042
3	0x3dab8f0c	0.083768934
4	0xbd01ffb4	-0.031737998
5	0x3e651b84	0.22373778
6	0xbd1a593f	-0.037682768
7	0x3e8040f7	0.25049564
8	0x3c641018	0.013919853
9	0x3e6c5454	0.23079044
10	0x3d5feb52	0.05466778
11	0x3d197ede	0.037474506
12	0x3d502496	0.05081614
13	0x3d8a1bd7	0.06743591
14	0x3cebfb79	0.028806435
15	0x3e53aa0f	0.20670341
16	0x3d8226c9	0.06355054
17	0x3d9c9aeb	0.07646736
18	0x3e6b3122	0.22967961
19	0x3d81fd65	0.06347159
20	0x3d70298e	0.05863338
21	0xbd279798	-0.040916055
22	0x3bb6fade	0.005584105
23	0xbc197feb	-0.009368877
24	0x3e4b072d	0.19826956
25	0x3e854297	0.26027367
26	0x3cea4605	0.028597841
27	0x3d991314	0.07474342
28	0xbc5447e1	-0.01295659
29	0xbddbd803	-0.1073456
30	0x3d820338	0.0634827
31	0x3d44863b	0.047979575

last_layer.weight f4 [1, 32]
0	0x3e10364b	0.14083211
1	0xbebd91aa	-0.37025195
2	0x3e41d20b	0.18927781
3	0x3e6f5644	0.23372751
4	0x3d914723	0.070936464
5	0xbecd0ccc	-0.40048826
6	0xbdf05902	-0.11735727
7	0xbea6bd8a	-0.32566482
8	0x3e51ab5f	0.20475529
9	0xbecae935	-0.39631048
10	0x3ce2749a	0.02764349
11	0x3e10d660	0.14144278
12	0x3e0c7978	0.13718212
13	0xbe0420e5	-0.12903173
14	0x3e5e0a01	0.21683504
15	0xbee3cc5c	-0.4449185
16	0x3e1a7842	0.15084937
17	0x3db6af25	0.08920125
18	0xbec1fb84	-0.37887204
19	0x3e5abe73	0.21361713
20	0x3e448693	0.19191961
21	0x3c26a7b1	0.010171817
22	0x3e3a05c9	0.1816627
23	0x3d0682c0	0.032839537
24	0xbef2f059	-0.47448996
25	0xbec83087	-0.39099523
26	0x3e5167d9	0.20449771
27	0x3e0b5185	0.13605316
28	0xbd86de44	-0.065853626
29	0xbd34db4d	-0.044154454
30	0x3e221c69	0.1583115
31	0x3e762ab4	0.24039727
