mycroft.onnx (onnx, 205430 bytes, 9 tensors)

layer1.weight f4 [32, 1536]
-0.025543014 0.018567674 0.0009610666 -0.0072920555 0.013304513 0.015338459 0.00434939 0.021080151
-0.047699176 0.012985482 -0.004611681 -0.042948898 -0.0050049266 -0.025693938 -0.015958417 0.07490572
-0.017675664 0.007217522 0.0047677937 -0.002133223 0.040800072 0.029992785 -0.0065211505 0.041889485
-0.0012339477 0.031900134 -0.022099417 0.012801114 0.013387086 -0.021386772 0.040232763 -0.012277205
-0.0038365147 -0.0008273809 -0.05105539 -0.0034254342 0.014156852 0.026802542 0.05060796 -0.023818789
0.031105088 -0.0120387925 0.014014749 -0.008454066 -0.02506294 -0.002718682 -0.0076255584 0.020755302
-0.025455743 0.08140691 0.020960294 0.0113518555 -0.0239398 0.018519381 -0.005373939 -0.02088572
-0.03290017 -0.0072847153 -0.02174945 0.0019038058 0.024438193 0.012518702 0.023148984 0.0012391541
0.0077912947 0.015536507 0.019039944 -0.0039940043 -0.020163555 -0.039688673 -0.039876413 0.034464806
0.013763918 -0.015003758 0.0101844985 -0.034916483 0.010021427 -0.03908418 -0.0044591175 -0.015417994
0.03804445 0.009466617 -0.0113168135 0.035837032 0.028536841 -0.03433626 -0.021292107 -0.041967988
0.039697517 0.0020516773 0.030907571 0.015492608 0.019522117 -0.009458422 0.012764516 -0.008800696
-0.009566495 0.037623096 -0.0048658424 0.011087659 0.013411203 0.014092737 -0.008686441 0.0044717365
-0.01705932 0.028958337 -0.012786447 -0.019250486 -0.0054056845 -0.009492855 -0.012253159 0.042020462
-0.038397364 0.04581776 -0.024793796 0.008368314 0.044010732 0.03156574 0.015460896 -0.007675947
0.017816223 0.01742336 0.006875932 0.025509676 0.0001715085 -0.02874987 -0.008142374 -0.010712267
-0.014439211 -0.008888285 -0.008509518 0.0004426471 0.00071342505 0.032078896 0.024607072 0.006251927
0.006428697 -0.0074619483 0.027003052 -0.0017973211 -0.029289216 -0.013709667 -0.017307878 0.034445792
-0.008563437 0.026420662 -0.002046591 0.018258749 -0.02591872 0.01529226 -0.003312555 0.0022453729
-0.018565927 -0.0023896606 0.00040229716 -0.0392958 0.021350848 -0.02370411 0.012840593 -0.060332544
0.0021645266 -0.0011081949 0.010211937 0.010247564 -0.02547503 -0.017629905 -0.011862952 0.018620195
0.03968086 0.0032509603 -0.03432426 -0.06740027 0.01970869 0.030944005 -0.023196349 -0.01778027
0.013980299 0.010928876 0.010373165 0.025428746 0.008278096 -0.0019194549 -0.013562439 0.0105933435
0.035909303 -0.005503404 0.06043739 0.022048319 0.004971461 -0.011550061 0.0029321352 0.018652303
-0.033372194 0.007050358 0.010575703 0.025733536 0.01367552 0.03302831 -0.027247278 -0.0016161485
0.0040157647 0.04054206 -0.018486839 -0.001272008 -0.00012254716 -0.030515596 -0.008209506 0.03905342
-0.010801979 0.018359207 0.0016393842 -0.02866796 0.03603455 0.010749421 -0.013322308 0.00084061583
0.023676872 0.019780658 -0.009076175 0.013804887 0.020555496 -0.004810139 -0.008981532 0.033070974
0.0009321709 -0.020727465 -0.029920503 0.02146752 0.026616344 0.018445253 0.03202345 -0.011584415
-0.004058372 0.029280422 0.018443871 0.0006388122 0.026557947 -0.01965565 0.014656091 0.029794196
-0.006879517 0.04694345 0.032698367 0.0014875171 -0.011910132 0.034267783 -0.00042979253 -0.0073624738
-0.028272923 -0.006596851 -0.027785214 -0.026990907 0.02315959 0.0028897529 0.045718376 -0.020016218
00000000: 953f d1bc 3c1b 983c 16f0 7b3a 32f2 eebb
00000010: 2cfb 593c 294e 7b3c 5485 8e3b 48b0 ac3c
00000020: 3660 43bd 0fc1 543c 961d 97bb 2feb 2fbd
00000030: 5e00 a4bb 187c d2bc 3abb 82bc 2c68 993d
00000040: 8ecc 90bc f680 ec3b 273b 9c3b 8bcd 0bbb
00000050: fa1d 273d 6eb3 f53c 60af d5bb 4f94 2b3d
00000060: 6abc a1ba b7a9 023d d609 b5bc c3bb 513c
00000070: 8255 5b3c 5033 afbc 1ccb 243d 5426 49bc
00000080: 096e 7bbb 98e4 58ba 751f 51bd 407d 60bb
00000090: 24f2 673c 0191 db3c 4b4a 4f3d 9f1f c3bc
000000a0: 19d0 fe3c 5b3e 45bc 1e9e 653c ec82 0abc
000000b0: cb50 cdbc ea2b 32bb d2df f9bb 0607 aa3c
000000c0: 9088 d0bc abb8 a63d ecb4 ab3c 22fd 393c
000000d0: 661d c4bc f5b5 973c de17 b0bb 8818 abbc
000000e0: 54c2 06bd 9fb4 eebb e72b b2bc 1f89 f93a
000000f0: 9b32 c83c 3e1b 4d3c f0a2 bd3c 1d6b a23a
00000100: 1e4e ff3b d58c 7e3c a8f9 9b3c 23e0 82bb
00000110: 0a2e a5bc 9790 22bd 7355 23bd f82a 0d3d
00000120: 0e82 613c 52d2 75bc e2dc 263c 9604 0fbd
00000130: e930 243c bc16 20bd ca1d 92bb c19b 7cbc
00000140: 7fd4 1b3d df19 1b3c 286a 39bc dac9 123d
00000150: 18c6 e93c 2ea4 0cbd c96c aebc a0e6 2bbd
00000160: dd99 223d 6f75 063b e031 fd3c b5d4 7d3c
00000170: d9ec 9f3c 7ff7 1abc 4322 513c cb30 10bc
00000180: cabc 1cbc ad1a 1a3d a571 9fbb 03a9 353c
00000190: aaba 5b3c 39e5 663c 9351 0ebc a587 923b
000001a0: fdbf 8bbc 093a ed3c 3f7e 51bc 32b3 9dbc
000001b0: 2b22 b1bb eb87 1bbc 79c1 48bc a61d 2c3d
000001c0: 8e46 1dbd 67ab 3b3d 5c1c cbbc 411b 093c
000001d0: 9944 343d 144b 013d b34f 7d3c 8386 fbbb
000001e0: 54f3 913c 6fbb 8e3c 804f e13b abf9 d03c
000001f0: f6d6 3339 d984 ebbc 9867 05bc 8182 2fbc
00000200: 7192 6cbc 2ba0 11bc 816b 0bbc 1713 e839
00000210: 2505 3b3a 2965 033d c594 c93c f7dc cc3b
00000220: d2a7 d23b 5c83 f4bb 8135 dd3c 1794 ebba
00000230: f0ef efbc 839e 60bc 40c9 8dbc 0817 0d3d
00000240: a84d 0cbc 2570 d83c 1920 06bb 5f93 953c
00000250: 7f53 d4bc 638c 7a3c 7317 59bb 1b27 133b
00000260: 9217 98bc da9b 1cbb 69eb d239 a2f4 20bd
00000270: f9e7 ae3c 1f2f c2bc 5a61 523c 421f 77bd
00000280: bbda 0d3b da40 91ba f84f 273c 66e5 273c
00000290: 03b1 d0bc 976c 90bc d45c 42bc 6189 983c
000002a0: 6688 223d 100e 553b 9897 0cbd 2709 8abd
000002b0: 1e74 a13c 487e fd3c 4506 bebc eea7 91bc
000002c0: a00d 653c 070f 333c 35f4 293c f24f d03c
000002d0: daa0 073c 3896 fbba fe34 5ebc b48f 2d3c
000002e0: a215 133d e655 b4bb 328d 773d ad9e b43c
000002f0: a3e7 a23b 783c 3dbc 1129 403b b7cc 983c
00000300: 48b1 08bd b106 e73b b745 2d3c 23cf d23c
00000310: 4a0f 603c b148 073d af35 dfbc f2d4 d3ba
00000320: ad96 833b 6e0f 263d b671 97bc 82b9 a6ba
00000330: 0180 00b9 d8fb f9bc 2a81 06bc 7bf6 1f3d
00000340: c9fa 30bc 0c66 963c 9be0 d63a 12d9 eabc
00000350: f798 133d 571e 303c cf45 5abc c65c 5c3a
00000360: 00f6 c13c 0c0b a23c 3db4 14bc e52d 623c
00000370: 0064 a83c 5f9e 9dbb 4727 13bc 6e75 073d
00000380: ee5c 743a a5cc a9bc d81b f5bc a7dc af3c
00000390: 850a da3c 801a 973c 052b 033d 8fcc 3dbc
000003a0: 18fc 84bb 7fdd ef3c 9a17 973c f675 273a
000003b0: 0d90 d93c e304 a1bc 1a20 703c f512 f43c
000003c0: 926d e1bb c647 403d b9ee 053d cbf8 c23a
000003d0: b722 43bc 605c 0c3d c755 e1b9 e840 f1bb
000003e0: 9e9c e7bc 662a d8bb d19d e3bc 091c ddbc
000003f0: 2eb9 bd3c 0262 3d3b 3143 3b3d 0df9 a3bc

layer1.bias f4 [32]
-0.016587079 -0.020944174 -0.0023210451 0.023023736 -0.016275857 0.00742882 0.017762978 0.02983326
0.04112152 -0.0075212223 -0.012525605 0.01310104 0.0048673335 0.017504063 -0.00049021794 0.044143695
0.002312185 0.0026942396 0.021300362 0.024272613 -0.01203371 0.04336926 0.013592908 -0.012643498
-0.025224112 0.0013846081 0.025319986 0.012892448 -0.005790909 -0.010918311 0.012760278 -0.013989828
00000000: a0e1 87bc 1e93 abbc ad1c 18bb 469c bc3c
00000010: f254 85bc 756d f33b aa83 913c e264 f43c
00000020: 0a6f 283d 9674 f6bb 3238 4dbc bfa5 563c
00000030: 277e 9f3b ae64 8f3c f881 00ba 05d0 343d
00000040: 0788 173b d791 303b 197e ae3c 5cd7 c63c
00000050: 0a29 45bc f7a3 313d cab4 5e3c ad26 4fbc
00000060: cca2 cebc bd7b b53a dc6b cf3c d93a 533c
00000070: aac1 bdbb b7e2 32bc 7c10 513c 9735 65bc

layernorm1.weight f4 [32]
1.0020193 0.97573996 1.0265201 0.89743584 0.98422927 0.9727091 1.0108496 1.0141523
0.924286 1.0372674 1.0364982 1.0108267 1.0687083 0.9007397 1.0119698 0.9637318
0.94802487 0.9176886 1.0305303 1.0061374 0.94709754 1.0179126 0.91503453 1.018923
0.97221684 1.1007593 0.9814366 1.0403919 0.942271 1.0058626 1.0103997 0.98380715
00000000: 2b42 803f 18ca 793f 0365 833f 5bbe 653f
00000010: 73f6 7b3f 7703 793f 8563 813f becf 813f
00000020: 029e 6c3f 2ec5 843f f9ab 843f c562 813f
00000030: 6fcb 883f e196 663f 3a88 813f 21b7 763f
00000040: c2b1 723f a4ed 6a3f 6be8 833f 1cc9 803f
00000050: fc74 723f f64a 823f b43f 6a3f 126c 823f
00000060: 34e3 783f aee5 8c3f 6e3f 7b3f 902b 853f
00000070: ac38 713f 1bc0 803f c754 813f c9da 7b3f

layernorm1.bias f4 [32]
0.03009321 -0.020299448 0.01925242 -0.012661336 -0.0100471545 -0.03320158 -0.0054666474 0.0060078613
-0.0011607632 0.03856398 0.016994735 0.013198716 0.04492427 -0.00868515 0.0046362956 0.0048413537
-0.05731272 0.010496849 0.034177493 -0.0163063 -0.015601446 0.017160013 -0.06624645 -0.0006117744
-0.011222306 0.020334668 -0.019618466 0.034883346 -0.03386373 0.008847318 -0.0070897294 0.008334652
00000000: 0986 f63c 074b a6bc 40b7 9d3c 7e71 4fbc
00000010: d29c 24bc 61fe 07bd 9021 b3bb 98dd c43b
00000020: c024 98ba 44f5 1d3d 8b38 8b3c 6d3f 583c
00000030: 8302 383d 294c 0ebc 11ec 973b 38a4 9e3b
00000040: bec0 6abd fafa 2b3c b3fd 0b3d ca94 85bc
00000050: 359d 7fbc 2893 8c3c 38ac 87bd 7c5f 20ba
00000060: c3dd 37bc e494 a63c e8b6 a0bc d7e1 0e3d
00000070: b2b4 0abd 57f4 103c f650 e8bb 108e 083c

blocks.0.fcn_layer.weight f4 [32, 32]
0.18099941 0.14421944 0.013894891 0.05261514 0.095434666 0.09221568 0.12598057 -0.118315145
0.1095035 -0.09515493 0.0884316 -0.023034591 0.06441831 0.016645553 0.07015081 0.061142784
0.07072387 0.065085 -0.12015159 0.07707873 -0.08286721 0.108497016 -0.041425534 0.08417848
0.07555267 -0.10294875 0.1621821 0.0038704362 0.12579688 0.124211684 -0.0027710078 -0.006208007
0.22887972 0.020392265 -0.03274352 -0.03353055 -0.093101114 0.034295544 0.30566612 -0.18979587
0.13162951 0.07038459 0.16783501 -0.061122783 0.24027283 -0.019802125 0.19727752 -0.003639701
-0.051814258 0.02142342 0.07477237 -0.062437188 0.017712077 -0.0869979 0.11359765 0.1817052
-0.0715306 -0.1761652 -0.0649503 -0.009364129 -0.028372625 0.07672185 -0.07502342 0.005208959
0.03305189 0.07897985 -0.061068255 0.14834611 0.13627584 0.16522408 0.061566003 0.08031597
0.07734997 -0.15751168 -0.06362076 -0.08661163 0.13289681 -0.13203289 0.11467528 0.036461364
-0.04098812 -0.12144996 -0.054481477 0.13283917 -0.017912285 0.051759712 0.0980967 0.1444683
0.13848151 0.068310045 -0.09060955 -0.09275971 -0.1012239 -0.03919424 -0.09003686 0.044968113
-0.062093336 0.011148203 -0.027575789 0.1283957 -0.021288432 0.009542661 0.055470258 0.075938866
0.09920024 -0.16710638 0.02145542 -0.021808825 0.007323734 -0.072457984 -0.016254941 0.021852732
0.12070785 -0.014245154 -0.14899404 0.072190076 0.1630849 -0.003822567 0.08266971 0.15044948
0.101497635 0.141533 0.096839786 -0.10576869 -0.08231145 0.0053973203 -0.014920927 -0.11270899
0.034695327 0.124203734 -0.025610924 -0.08938108 -0.050756652 -0.06426617 -0.012222997 -0.036968865
-0.010375538 -0.08807319 0.14902258 0.0657491 0.027850699 -0.11951416 0.05720716 0.051988576
-0.053807743 0.14099666 0.1256452 0.20627691 0.061857294 -0.11553831 0.17520519 -0.027165728
0.016798014 -0.12148601 0.031044843 -0.18715617 0.058123175 0.11515461 -0.041200377 -0.06552421
-0.13802682 -0.14947817 0.1415294 -0.1236106 0.030469745 -0.17753531 0.013543256 0.18448581
0.1340349 0.004131281 0.0015636809 0.05023295 -0.12667698 0.0071863513 -0.07265137 0.08398309
-0.08077183 0.11307675 -0.15313227 -0.09168736 0.11584084 0.112946846 0.10167805 -0.057805285
-0.1640878 -0.025072163 0.027388487 0.18108866 -0.12528105 -0.12780893 0.0070469095 -0.06980715
0.08549347 0.017425986 0.075548515 -0.0024878506 -0.026509242 0.090947144 0.07068584 -0.21172449
-0.079516135 0.07551945 0.14647564 -0.030258847 0.11355468 0.1375851 0.21630704 -0.03488557
-0.08268228 -0.014314224 0.0045886002 -0.04421591 -0.07457494 0.012189409 -0.017119074 0.18528807
0.015167733 -0.16145526 0.040943373 0.06820007 0.07018458 0.11613726 -0.05215095 -0.033117164
0.017816998 -0.18343827 0.12140932 -0.13141777 -0.07418689 0.05402922 -0.16266379 0.029395284
0.07139242 0.010500294 -0.12869552 -0.22017375 -0.25675476 -0.047532447 -0.02185168 0.043877292
-0.059791405 0.038823288 0.16051787 0.10897537 -0.15398644 0.105851054 -0.08252017 0.03677942
-0.14193851 -3.982575e-05 -0.08028988 0.03581167 0.10214295 -0.019926203 0.06596609 0.023737272
00000000: e957 393e 43ae 133e 66a7 633c f982 573d
00000010: 4073 c33d 93db bc3d 0d01 013e 364f f2bd
00000020: 5f43 e03d 97e0 c2bd a01b b53d 0ab3 bcbc
00000030: bfed 833d 415c 883c 3aab 8f3d db70 7a3d
00000040: add7 903d 494b 853d 0912 f6bd 74db 9d3d
00000050: 49b6 a9bd af33 de3d d2ad 29bd c465 ac3d
00000060: 5cbb 9a3d cbd6 d2bd 1013 263e 25a7 7d3b
00000070: e6d0 003e b262 fe3d cc99 35bb 8a6c cbbb
00000080: 725f 6a3e ae0d a73c 121e 06bd 5457 09bd
00000090: ccab bebd 7c79 0c3d 4580 9c3e d959 42be
000000a0: e3c9 063e cc25 903d f1dc 2b3e e25b 7abd
000000b0: 150a 763e 1138 a2bc 1e03 4a3e 0d88 6ebb
000000c0: 303b 54bd 2b80 af3c 4222 993d 23be 7fbd
000000d0: eb18 913c f42b b2bd e2a5 e83d ee10 3a3e
000000e0: a37e 92bd a664 34be aa04 85bd 016c 19bc
000000f0: b56d e8bc 5820 9d3d e1a5 99bd eaaf aa3b
00000100: 6b61 073d 30c0 a13d b522 7abd 0be8 173e
00000110: e58b 0b3e 8030 293e a22c 7c3d b37c a43d
00000120: a969 9e3d be4a 21be 9a4b 82bd 7061 b1bd
00000130: 1a16 083e a133 07be e0da ea3d 8358 153d
00000140: 29e3 27bd c2ba f8bd f827 5fbd fe06 083e
00000150: c9bc 92bc fe01 543d ece6 c83d 7fef 133e
00000160: 19ce 0d3e 23e6 8b3d 8091 b9bd cef8 bdbd
00000170: 7a4e cfbd 248a 20bd 3f65 b8bd 7c30 383d
00000180: 9555 7ebd f4a6 363c 9fe6 e1bc 2a7a 033e
00000190: 1465 aebc d258 1c3c c834 633d d685 9b3d
000001a0: 7f29 cb3d ef1d 2bbe 47c3 af3c 6ca8 b2bc
000001b0: effb ef3b da64 94bd 1529 85bc 8004 b33c
000001c0: ad35 f73d 8264 69bc e591 18be 64d8 933d
000001d0: baff 263e 0884 7abb bd4e a93d 6e0f 1a3e
000001e0: fedd cf3d 07ee 103e f053 c63d 419d d8bd
000001f0: e892 a8bd 01dc b03b e776 74bc f9d3 e6bd
00000200: b01c 0e3d 875e fe3d 00ce d1bc 6d0d b7bd
00000210: 35e6 4fbd fb9d 83bd f742 48bc aa6c 17bd
00000220: 29fe 29bc b75f b4bd 6099 183e 77a7 863d
00000230: 2627 e43c d7c3 f4bd 0e52 6a3d f9f1 543d
00000240: 8265 5cbd 6e61 103e 23a9 003e 413a 533e
00000250: 135e 7d3d 599f ecbd fd68 333e a98a debc
00000260: fd9b 893c a8cd f8bd c151 fe3c dea5 3fbe
00000270: 9112 6e3d 2ed6 eb3d bac1 28bd 8f31 86bd
00000280: e756 0dbe ce10 19be 15ed 103e 8e27 fdbd
00000290: b09b f93c d1cb 35be 88e4 5d3c d9e9 3c3e
000002a0: 7240 093e b25f 873b 6df4 cc3a 11c1 4d3d
000002b0: 9cb7 01be 7c7b eb3b 3eca 94bd 54ff ab3d
000002c0: b46b a5bd c894 e73d b5ce 1cbe 95c6 bbbd
000002d0: f63d ed3d ad50 e73d 953c d03d 3cc5 6cbd
000002e0: a206 28be 2364 cdbc d25d e03c 4e6f 393e
000002f0: ad49 00be 58e0 02be c3e9 e63b 0df7 8ebd
00000300: 3317 af3d f1c0 8e3c 2eb9 9a3d 350b 23bb
00000310: e929 d9bc 7f42 ba3d bdc3 903d 4ece 58be
00000320: 5bd9 a2bd f1a9 9a3d b6fd 153e 67e1 f7bc
00000330: 5b8f e83d 1ce3 0c3e 987f 5d3e 2ce4 0ebd
00000340: 5455 a9bd 3586 6abc f85b 963b be1b 35bd
00000350: bfba 98bd 16b6 473c 4d3d 8cbc 28bc 3d3e
00000360: 1582 783c 8754 25be 3db4 273d 7aac 8b3d
00000370: efbc 8f3d 5fd9 ed3d 3c9c 55bd dda5 07bd
00000380: f4f4 913c 3ed7 3bbe 73a5 f83d 6192 06be
00000390: 4cef 97bd be4d 5d3d 5691 26be 61ce f03c
000003a0: 3036 923d 6d09 2c3c c2c8 03be 3a75 61be
000003b0: 5c75 83be 62b1 42bd 4b02 b3bc adb8 333d
000003c0: d5e7 74bd 2b05 1f3d cc5e 243e 7b2e df3d
000003d0: 9fae 1dbe 70c8 d83d 5600 a9bd 04a6 163d
000003e0: 5458 11be 930a 27b8 056f a4bd 42af 123d
000003f0: 5330 d13d 473c a3bc 3b19 873d ab74 c23c

blocks.0.fcn_layer.bias f4 [32]
-0.16591868 -0.008990576 -0.08630582 0.033684008 0.027069325 -0.007756508 -0.102467015 -0.13736297
0.08365866 0.10851341 0.14633599 0.07791758 -0.081587456 0.11897203 -0.029223353 0.06637108
0.12740849 -0.034840424 -0.15055874 0.06004865 0.0877916 0.010467695 -0.05683522 0.05524054
-0.15934628 0.07591893 -0.15949722 0.058214962 0.13304688 -0.06939134 -0.15345322 0.13148805
00000000: 96e6 29be 354d 13bc 1bc1 b0bd 3ef8 093d
00000010: 7dc0 dd3c 4e2a febb 3ada d1bd e1a8 0cbe
00000020: 3b55 ab3d 473c de3d 1ad9 153e 4193 9f3d
00000030: 5317 a7bd 9ca7 f33d d065 efbc 90ed 873d
00000040: 5f77 023e d5b4 0ebd 122c 1abe 93f5 753d
00000050: 15cc b33d b280 2b3c 0ccc 68bd e843 623d
00000060: ac2b 23be 627b 9b3d 3d53 23be d072 6e3d
00000070: 713d 083e 0c1d 8ebd d722 1dbe cea4 063e

blocks.0.layer_norm.weight f4 [32]
1.1016183 1.2437168 1.1852217 1.0641247 1.1120442 1.2749115 1.1794306 1.2305793
1.1634896 1.1348068 1.2744882 1.1204077 1.1745235 1.2662965 1.2505524 1.1509225
1.2431066 1.2695755 1.1681379 1.2063718 1.1325547 1.1472555 1.125819 1.2631345
1.3045125 1.1314696 0.9354921 1.0166643 1.1171616 1.252604 1.0951229 1.1174744
00000000: d401 8d3f 1d32 9f3f 58b5 973f 3d35 883f
00000010: 7757 8e3f 4d30 a33f 95f7 963f 9f83 9d3f
00000020: 3aed 943f 5941 913f 6e22 a33f 8569 8f3f
00000030: c956 963f 0116 a23f 1a12 a03f 6e51 933f
00000040: 1e1e 9f3f 7381 a23f 8b85 953f 646a 9a3f
00000050: 8df7 903f 45d9 923f d61a 903f 64ae a13f
00000060: 44fa a63f ffd3 903f 697c 6f3f 0e22 823f
00000070: 27ff 8e3f 5455 a03f fd2c 8c3f 6709 8f3f

blocks.0.layer_norm.bias f4 [32]
0.061989263 0.15069075 0.13023904 0.03714333 0.056382183 0.24245384 0.09920858 0.22737809
0.13702604 0.035745785 0.24594855 0.10531214 0.2087101 0.23865491 0.22290528 0.022592334
0.22938648 0.22689791 0.1100444 0.15123741 0.12737657 0.08850897 0.13089415 0.13551526
0.25116223 0.079144835 -0.07077929 -0.019523473 0.07461352 0.22888921 0.05344743 0.08012799
00000000: 74e8 7d3d ad4e 1a3e 625d 053e 9b23 183d
00000010: 01f1 663d d245 783e de2d cb3d cdd5 683e
00000020: 8e50 0c3e 2c6a 123d f0d9 7b3e e4ad d73d
00000030: 1ab8 553e f461 743e 4841 643e 8f13 b93c
00000040: 4ae4 6a3e ed57 683e f55e e13d fbdd 1a3e
00000050: 016f 023e 3144 b53d 1e09 063e 83c4 0a3e
00000060: 5698 803e b016 a23d bbf4 90bd b1ef 9fbc
00000070: f9ce 983d ef61 6a3e b1eb 5a3d 251a a43d

last_layer.weight f4 [1, 32]
0.25758055 0.35428774 0.15093073 0.06974413 0.18744211 -0.35843846 0.23015803 -0.30210114
0.3235379 0.1500299 -0.30909702 0.21000168 0.27286506 -0.3661958 -0.38484865 0.15509294
-0.39570445 -0.3823371 0.2612285 0.1873812 0.17380427 0.27404514 0.09298957 0.23437116
-0.33879995 0.2181977 -0.05572607 -0.04474594 0.24356297 -0.3951153 0.20434928 0.18825373
00000000: 99e1 833e 3465 b53e 968d 1a3e 03d6 8e3d
00000010: d3f0 3f3e 3f85 b7be 8cae 6b3e 00ad 9abe
00000020: c2a6 a53e 70a1 193e f741 9ebe ae0a 573e
00000030: f8b4 8b3e 047e bbbe e20a c5be afd0 1e3e
00000040: c699 cabe b0c1 c3be bebf 853e dbe0 3f3e
00000050: bff9 313e a54f 8c3e 5171 be3d fefe 6f3e
00000060: 3077 adbe 386f 5f3e 0541 64bd 8547 37bd
00000070: 9268 793e 8d4c cabe f040 513e 96c5 403e
