nexus.onnx (onnx, 205430 bytes, 9 tensors)

layer1.weight f4 [32, 1536]
0.0007657975 0.020000204 -0.024076192 -0.0021978077 0.024169285 0.022015015 0.028108334 -0.057352778
-0.0508984 -0.00045056958 -0.025784537 0.0015525077 0.023302784 -0.029951924 0.011799252 0.03142731
0.025691757 0.071728505 -0.038939714 0.008080451 0.03206695 0.009567793 -0.007994024 -0.034126665
0.004205079 0.008199839 0.0073836637 -0.026511487 -0.01261968 0.032948077 0.0019062705 0.031228049
-0.042647276 -0.024807787 0.0070241913 -0.004254533 0.017092684 -0.0018864465 -0.04021682 0.02151113
-0.03119858 0.07272067 -0.0123138605 -0.01245818 0.003134594 -0.010099407 -0.00743596 0.029961847
-0.0136284055 0.018256392 0.033055134 -0.08157734 -0.0038757757 -0.00010865432 0.010558029 0.013139257
0.04156604 0.014003416 -0.012710241 -0.08125447 0.030174837 -0.03156233 0.0014657787 -0.012053318
0.04086932 0.021402825 -0.0017940709 -0.017926713 -0.105270766 -0.038668886 -0.095197186 -0.002794971
0.05182026 0.007441281 0.033605926 0.0982069 -0.0067294007 -0.015804898 -0.01015752 -0.047121122
0.1060025 0.00829976 0.011351156 0.048648506 0.005712029 -0.10667067 -0.009060122 -0.024688251
0.052024692 0.01634348 -0.020791592 0.034323215 0.049299 0.00049819733 0.0018105815 0.015535319
0.015501644 0.047422677 0.023829741 -0.034220926 0.0048690233 0.00843795 0.008827715 -0.05489786
-0.028303782 0.0154507505 -0.017042898 -0.032471668 -0.0018006387 0.03517646 -0.039125983 -0.069862306
0.07043977 0.007139462 0.054160394 -0.033657465 -0.0146752065 0.038332324 0.008390702 0.018536404
0.057863533 0.0020821546 0.028953196 -0.007005442 0.00068054866 0.06959663 -0.010351862 0.020300426
0.016950237 0.0042708213 -0.0046837116 -0.00027423396 -0.013286283 0.00187555 -0.04210839 -0.0056261825
-0.025368147 0.003634707 0.008868861 0.011074009 0.013747065 -0.00037926383 -0.037415404 0.068683766
-0.01589265 0.06228147 -0.0010476655 -0.020634163 -0.045315813 -0.08150176 -0.028209962 0.0044862484
0.0026185936 0.011511566 0.011933883 -0.08387078 0.009138275 0.03663079 -0.04483337 -0.011303866
0.046428986 0.023122026 -0.07274488 0.012185493 -0.05428426 0.0009685035 -0.06624402 0.01565737
0.006477203 -0.030862074 0.027390761 0.021443339 -0.06255998 -0.008414042 0.009222682 0.007666687
0.059553392 0.023509419 0.0175701 0.013717542 0.020137945 -0.053183988 -0.02016541 -0.04960704
0.1112558 0.0044675553 -0.04471597 0.021771071 0.055862486 -0.0020957282 0.03369832 0.016307617
0.0065156687 0.022367654 0.06250495 0.015473557 0.020444727 0.041568074 0.05624281 -0.06663953
-0.033147205 0.030278234 -0.009857793 0.051780395 0.017554285 -0.024238102 -0.054151427 0.010726092
0.04438186 -0.071699604 -0.0051164967 -0.028109776 -0.031034272 0.024622811 0.029100766 -0.019292494
0.044358853 0.0017255276 0.0239269 -0.05134203 -0.0075226547 0.050890166 0.003942284 -0.0045507937
0.0031813118 -0.0038216955 -0.0029760539 -0.017831584 0.0010376627 0.009973648 -0.11140056 0.0028472007
0.022622079 0.05085078 0.0075546573 0.0066851294 0.011600656 -0.00026933293 -0.0006270649 0.07659168
0.0015699557 0.019454714 -0.0037128567 -0.008618866 -0.044511877 0.0029865408 -0.014926826 -0.021798437
0.005739935 0.0068712463 0.02692113 -0.023311976 0.055096127 0.06929023 -0.043188587 0.0027312094
00000000: cdbf 483a 78d7 a33c 6f3b c5bc 1809 10bb
00000010: aafe c53c d558 b43c 7343 e63c bfea 6abd
00000020: d77a 50bd 6d3a ecb9 183a d3bc 847d cb3a
00000030: 7be5 be3c bd5d f5bc a651 413c ecb9 003d
00000040: 8577 d23c 65e6 923d 407f 1fbd de63 043c
00000050: a258 033d 3cc2 1c3c 5ef9 02bc 67c8 0bbd
00000060: c2ca 893b 9e58 063c a9f2 f13b 9e2e d9bc
00000070: c6c2 4ebc 90f4 063d d3db f93a f7d1 ff3c
00000080: e9ae 2ebd b339 cbbc 302b e63b 9c69 8bbb
00000090: f505 8c3c a442 f7ba 64ba 24bd 1c38 b03c
000000a0: 2a94 ffbc 93ee 943d 13c0 49bc 651d 4cbc
000000b0: c36d 4d3b fc77 25bc 5ba9 f3bb 8c72 f53c
000000c0: ad49 5fbc 6e8e 953c d264 073d 0512 a7bd
000000d0: ba00 7ebb 58dd e3b8 95fb 2c3c 0a46 573c
000000e0: 2741 2a3d 956e 653c 9d3e 50bc be68 a6bd
000000f0: 3831 f73c 8047 01bd 5f1f c03a 487b 45bc
00000100: 9766 273d fa54 af3c 0827 ebba 0bdb 92bc
00000110: 3398 d7bd 4463 1ebd bef6 c2bd d52b 37bb
00000120: 7b41 543d fdd5 f33b 5ea6 093d b320 c93d
00000130: 4e82 dcbb 4679 81bc ba6b 26bc 1402 41bd
00000140: d717 d93d b7fb 073c 33fa 393c a843 473d
00000150: f92b bb3b 2776 dabd e870 14bc 043f cabc
00000160: d817 553d c3e2 853c 2153 aabc 8096 0c3d
00000170: c0ed 493d 7599 023a 0951 ed3a da87 7e3c
00000180: 9cfa 7d3c 483e 423d 9736 c33c 3e2b 0cbd
00000190: 548c 9f3b 543f 0a3c 1fa2 103c 94dc 60bd
000001a0: 55dd e7bc 2525 7d3c 8c9d 8bbc 0301 05bd
000001b0: 6903 ecba 3115 103d 9142 20bd f813 8fbd
000001c0: ba42 903d 26f2 e93b 4ad7 5d3d 69dc 09bd
000001d0: 4770 70bc 5b02 1d3d 2879 093c a8d9 973c
000001e0: 5002 6d3d c274 083b 412f ed3c e88d e5bb
000001f0: d966 323a ae88 8e3d db9a 29bc 144d a63c
00000200: 39db 8a3c 3ff2 8b3b d279 99bb 0fc7 8fb9
00000210: b6ae 59bc 04d5 f53a d979 2cbd d75b b8bb
00000220: dcd0 cfbc 4434 6e3b b34e 113c c36f 353c
00000230: 5f3b 613c eed7 c6b9 e540 19bd 13aa 8c3d
00000240: 4d31 82bc db1a 7f3d d251 89ba fa08 a9bc
00000250: 139d 39bd 65ea a6bd 9418 e7bc 6101 933b
00000260: b69c 2b3b 029b 3c3c 5586 433c 72c4 abbd
00000270: b4b8 153c 2b0a 163d 32a3 37bd da33 39bc
00000280: 522c 3e3d 676a bd3c 45fb 94bd a9a5 473c
00000290: 2c59 5ebd 2be3 7d3a f2aa 87bd e343 803c
000002a0: b83e d43b 76d2 fcbc 9762 e03c f1a9 af3c
000002b0: 721f 80bd 0ddb 09bc bb1a 173c d538 fb3b
000002c0: 42ee 733d d396 c03c 2cef 8f3c 8bbf 603c
000002d0: 55f8 a43c 74d7 59bd ee31 a5bc c030 4bbd
000002e0: 15da e33d 9264 923b 1828 37bd 3f59 b23c
000002f0: 10d0 643d 7c58 09bb 4007 0a3d 8d97 853c
00000300: 6481 d53b 5f3c b73c 9802 803d cd84 7d3c
00000310: b37b a73c 4943 2a3d dc5e 663d 4e7a 88bd
00000320: 5dc5 07bd 0f0a f83c 9582 21bc ae17 543d
00000330: 01ce 8f3c fc8e c6bc e3cd 5dbd 7ebc 2f3c
00000340: c1c9 353d 3ed7 92bd 49a8 a7bb 7946 e6bc
00000350: 963b febc c7b5 c93c bb64 ee3c 4b0b 9ebc
00000360: a1b1 353d 192b e23a 5902 c43c 054c 52bd
00000370: 9a80 f6bb 3572 503d 462e 813b d31e 95bb
00000380: 8e7d 503b 6975 7abb e609 43bb 8b13 92bc
00000390: 2f02 883a 8368 233c fa25 e4bd 1a98 3a3b
000003a0: f051 b93c e848 503d 0f8d f73b ee0e db3b
000003b0: ae10 3e3c 4135 8db9 9d61 24ba 19dc 9c3d
000003c0: f9c6 cd3a 7e5f 9f3c 6653 73bb 2536 0dbc
000003d0: 1652 36bd d7b9 433b a58f 74bc a392 b2bc
000003e0: 1116 bc3b 3128 e13b b489 dc3c c2f8 bebc
000003f0: 7aac 613d 09e8 8d3d 84e6 30bd 17fe 323b

layer1.bias f4 [32]
0.026173502 -0.0025057285 0.022480251 0.032487553 0.053829275 -0.013830824 0.035886258 -0.017155632
0.043601494 0.010901452 0.029859122 0.004819767 -0.018492892 0.010893715 -0.025555678 -0.0069200564
0.0027711224 0.02377979 0.01508012 0.009444772 0.015633617 0.020060027 0.011812027 0.009875398
-0.024609959 -0.027376812 0.008994035 0.0059400066 -0.0014113234 0.04021051 0.0015215338 0.008851803
00000000: d069 d63c 2637 24bb 8128 b83c ab11 053d
00000010: 167c 5c3d ae9a 62bc 78fd 123d f889 8cbc
00000020: 7b97 323d 019c 323c 1e9b f43c 23ef 9d3b
00000030: 687e 97bc 8d7b 323c 245a d1bc a4c1 e2bb
00000040: b89b 353b d6cd c23c 9c12 773c 3fbe 1a3c
00000050: 1212 803c ed54 a43c 3b87 413c 6ccc 213c
00000060: d39a c9bc 5645 e0bc b85b 133c 63a4 c23b
00000070: 28fc b8ba c7b3 243d 346e c73a 2707 113c

layernorm1.weight f4 [32]
1.0461258 1.0396292 0.90354854 0.9120692 0.940107 0.9111181 1.0798217 0.99836576
1.2003943 1.0015533 1.0069807 1.005598 1.0539882 1.001767 1.139159 0.9456776
0.9436369 0.91261804 0.9411376 0.989084 1.0895795 0.98690456 0.9420619 0.9314175
1.0083284 1.0522864 1.0351728 1.0731709 1.0777862 1.0339338 1.0001904 0.99972135
00000000: 73e7 853f 9212 853f f54e 673f 5e7d 693f
00000010: daaa 703f 093f 693f 9937 8a3f e694 7f3f
00000020: 85a6 993f e632 803f bee4 803f 6fb7 803f
00000030: 16e9 863f e739 803f f6cf 913f ed17 723f
00000040: 3092 713f 56a1 693f 65ee 703f 9c34 7d3f
00000050: 5777 8b3f c7a5 7c3f f82a 713f 6171 6e3f
00000060: e810 813f 52b1 863f 8b80 843f aa5d 893f
00000070: e6f4 893f f157 843f 3d06 803f bded 7f3f

layernorm1.bias f4 [32]
0.02464012 -0.027429912 -0.043385476 -0.09155974 -0.00302315 -0.07155189 -0.0029309324 0.0034631426
0.008867422 0.0011086047 0.018176323 -0.028587164 -0.030879922 -0.025468633 0.01907561 -0.07740514
-0.060165983 -0.07964968 -0.07588504 0.0032940307 0.020227985 -0.014679255 -0.034090567 -0.013740054
-0.016679183 -0.010050424 0.015000565 0.0106616365 0.022571418 -0.024027804 -0.04924878 0.013049379
00000000: 14da c93c b2b4 e0bc f8b4 31bd ac83 bbbd
00000010: 0a20 46bb cc89 92bd e314 40bb e4f5 623b
00000020: aa48 113c 9a4e 913a 83e6 943c a12f eabc
00000030: e4f7 fcbc 98a3 d0bc 7444 9c3c 9686 9ebd
00000040: 9b70 76bd 5f1f a3bd 9e69 9bbd aae0 573b
00000050: 29b5 a53c 4281 70bc 8da2 0bbd f71d 61bc
00000060: c8a2 88bc 89aa 24bc eec4 753c 25ae 2e3c
00000070: b2e7 b83c f5d5 c4bc 17b9 49bd 10cd 553c

blocks.0.fcn_layer.weight f4 [32, 32]
-0.032064922 0.078389466 0.08245006 0.08429984 0.05678543 -0.0303329 -0.07291332 0.080949545
-0.09293857 0.080669776 -0.022038376 -0.013823539 0.045139305 0.11482096 0.10027713 0.13562855
-0.08563264 -0.08596963 -0.06216337 -0.07179045 0.073349535 -0.036785234 0.07880816 -0.187774
0.1063008 0.11449186 0.08922173 -0.030474227 0.008097326 0.038814012 -0.07376029 -0.07489767
0.0886883 0.0704241 0.11191756 0.07442261 0.015376174 0.12286788 0.13101706 -0.061130073
-0.06229454 -0.1043947 -0.11592877 0.19141719 0.26284775 -0.076438904 0.2575468 0.077534184
-0.036760062 0.13304718 0.030442966 0.092174806 -0.03569547 -0.035371717 0.1471518 -0.07496311
0.13944872 0.30957317 0.12850124 0.0856908 0.037317295 0.18801168 0.0805111 -0.12750977
0.10472806 -0.10981667 0.03707254 0.044006236 0.09805331 -0.059976615 -0.068373 -0.15081948
-0.1987051 -0.14799088 0.14076759 -0.0035269416 0.07636758 0.063868895 0.041242465 0.036807038
0.037967727 -0.055967666 0.07361605 0.037445594 0.1966197 0.07663617 0.07424745 -0.010339848
0.09627636 -0.036443446 -0.04296058 0.19644165 0.101518385 0.05466266 -0.042374693 -0.10444602
-0.07449317 -0.0422471 0.0334046 0.0146645475 0.040830232 -0.044448208 0.03559903 -0.14763127
0.23140801 0.06200581 0.13658045 -0.08659494 -0.1808391 -0.086808376 -0.26049 0.1316541
0.08973324 -0.0468243 0.04713899 -0.13850032 -0.19490904 -0.03382366 -0.16763549 0.098728545
-0.058136676 0.00881959 -0.016121227 0.028646635 -0.22092468 0.11786033 0.020988267 0.06207476
-0.110988036 0.015260457 0.154118 -0.04213276 -0.0562278 0.07232522 0.10362495 0.05980988
0.31306663 0.11560871 0.13356507 -0.15952195 -0.17447038 0.07310696 -0.17968142 -0.0317654
-0.14494307 0.010935223 -0.09071534 -0.018794276 0.0071665067 -0.040266268 -0.06937576 0.029618926
-0.17672023 -0.16985792 -0.20925464 0.0073353616 0.068507984 0.24455252 0.07729177 0.12927812
0.042677246 -0.10143838 -0.055399407 -0.10283659 -0.110010095 -0.09107217 0.004141392 -0.09081194
0.004647437 -0.023671512 -0.08965227 -0.079499386 0.04653944 0.031547505 0.0022443377 -0.03037757
-0.11842408 -0.074172646 -0.15865788 0.01890199 -0.0022045355 -0.0014844822 -0.16874047 0.09009709
-0.016320495 0.09778134 -0.07399055 0.0997983 0.21743117 0.0074566677 -0.15939759 0.17682312
0.010763042 -0.018318502 0.01935621 0.15433802 0.06134755 -0.017851721 -0.12255547 -0.07344178
-0.09448282 0.067822784 -0.22042833 0.067997165 0.18020137 0.05109449 0.2833239 0.12469142
0.096740566 0.034456838 0.07047429 0.14325401 0.009024838 -0.020003691 0.049258064 -0.15301031
0.11937906 0.19357035 0.07847579 0.073315844 0.08098751 0.048415814 0.026997408 0.08010155
-0.027772246 -0.026660787 -0.09202143 0.06999844 0.062171552 0.07783642 0.06824134 0.062288232
-0.13860893 -0.08623855 -0.021891119 -0.079333216 0.20699944 0.14335041 0.0020356 0.16826424
0.06458134 0.14537698 -0.011835399 -0.0527159 0.017656889 -0.013865878 0.09615664 -0.076783314
0.1843828 0.20427088 0.13023913 0.11855612 0.010357934 0.079619385 0.0023357167 -0.1915073
00000000: 8256 03bd a88a a03d 94db a83d 65a5 ac3d
00000010: d797 683d b47c f8bc 9453 95bd e0c8 a53d
00000020: 9456 bebd 3236 a53d d389 b4bc 207c 62bc
00000030: fee3 383d 4027 eb3d 195e cd3d 36e2 0a3e
00000040: 2a60 afbd d810 b0bd 059f 7ebd df06 93bd
00000050: 4838 963d 1dac 16bd 2c66 a13d d447 40be
00000060: 3cb4 d93d b57a ea3d e2b9 b63d 16a5 f9bc
00000070: a6aa 043c 71fb 1e3d a30f 97bd f363 99bd
00000080: 36a2 b53d 833a 903d 0935 e53d e26a 983d
00000090: 59ec 7b3c 28a2 fb3d 5629 063e 8763 7abd
000000a0: 8f28 7fbd e3cc d5bd 106c edbd de02 443e
000000b0: fb93 863e 008c 9cbd 2ddd 833e 3eca 9e3d
000000c0: b891 16bd 853d 083e 8763 f93c 25c6 bc3d
000000d0: 6a35 12bd efe1 10bd f6ae 163e 4286 99bd
000000e0: a5cb 0e3e 6080 9e3e d495 033e a87e af3d
000000f0: 05da 183d 2286 403e 01e3 a43d ec91 02be
00000100: aa7b d63d 90e7 e0bd 60d9 173d e23f 343d
00000110: 2cd0 c83d 0aaa 75bd 2507 8cbd 6c70 1abe
00000120: 5a79 4bbe ec8a 17be 6125 103e 4324 67bb
00000130: 9b66 9c3d b2cd 823d dced 283d fac2 163d
00000140: 0c84 1b3d 5a3e 65bd 03c4 963d 8d60 193d
00000150: ad56 493e 6df3 9c3d 0c0f 983d 7768 29bc
00000160: 8a2c c53d b945 15bd 6ff7 2fbd 0028 493e
00000170: dfe8 cf3d f4e5 5f3d 1691 2dbd cce7 d5bd
00000180: e08f 98bd 4c0b 2dbd 43d3 083d 9243 703c
00000190: 9a3d 273d 530f 36bd 4ad0 113d a72c 17be
000001a0: 39f6 6c3e cef9 7d3d bfdb 0b3e b058 b1bd
000001b0: e32d 39be 97c8 b1bd f25e 85be 55d0 063e
000001c0: 10c6 b73d d6ca 3fbd d014 413d 07d3 0dbe
000001d0: 3c96 47be ae8a 0abd a3a8 2bbe 3132 ca3d
000001e0: b920 6ebd 0b80 103c aa10 84bc 59ac ea3c
000001f0: 143a 62be c260 f13d 96ef ab3c 1b42 7e3d
00000200: b24d e3bd ff06 7a3c 1cd1 1d3e 6793 2cbd
00000210: 1f4f 66bd 3f1f 943d 5139 d43d 34fb 743d
00000220: 454a a03e 42c4 ec3d 48c5 083e b959 23be
00000230: 5da8 32be 1ab9 953d 68fe 37be 701c 02bd
00000240: f56b 14be a629 333c f7c8 b9bd 74f6 99bc
00000250: 04d5 ea3b 3eee 24bd e114 8ebd 64a3 f23c
00000260: 26f6 34be 3cef 2dbe d946 56be 795d f03b
00000270: ea4d 8c3d fa6b 7a3e 264b 9e3d 7c61 043e
00000280: 56ce 2e3d edbe cfbd 7dea 62bd fd9b d2bd
00000290: f94c e1bd 0c84 babd 84b4 873b 9cfb b9bd
000002a0: 8749 983b c2ea c1bc 9c9b b7bd 93d0 a2bd
000002b0: 24a0 3e3d f537 013d bd15 133b 62da f8bc
000002c0: 5388 f2bd d4e7 97bd 3677 22be 59d8 9a3c
000002d0: f879 10bb f592 c2ba 4dca 2cbe d384 b83d
000002e0: 8fb2 85bc 9541 c83d 5c88 97bd 0d63 cc3d
000002f0: 47a6 5e3e 1057 f43b 1f39 23be 1f11 353e
00000300: 7857 303c af10 96bc ea90 9e3c c90a 1e3e
00000310: 9247 7b3d c63d 92bc 5dfe fabd a568 96bd
00000320: 3580 c1bd ace6 8a3d f7b7 61be 1942 8b3d
00000330: b586 383e 7548 513d d50f 913e 375e ff3d
00000340: eb1f c63d 9d22 0d3d d354 903d 2eb1 123e
00000350: eadc 133c c8de a3bc d3c2 493d bcae 1cbe
00000360: 027d f43d 4e37 463e eab7 a03d 9e26 963d
00000370: c8dc a53d a94f 463d ab29 dd3c 480c a43d
00000380: 9f82 e3bc b967 dabc bb75 bcbd 585b 8f3d
00000390: 99a7 7e3d b368 9f3d 1ec2 8b3d f221 7f3d
000003a0: 80ef 0dbe d69d b0bd 0155 b3bc 7479 a2bd
000003b0: a9f7 533e 73ca 123e b367 053b 764d 2c3e
000003c0: 3943 843d b4dd 143e 43e9 41bc a1ec 57bd
000003d0: 2ea5 903c b52d 63bc c6ed c43d 9240 9dbd
000003e0: d8ce 3c3e 632c 513e 685d 053e 8dcd f23d
000003f0: 53b4 293c 7d0f a33d d312 193b 7d1a 44be

blocks.0.fcn_layer.bias f4 [32]
0.04770402 0.17731836 -0.037542228 0.11334822 -0.13670719 0.12621938 0.029150171 -0.039820056
-0.064833716 0.14953573 0.15967093 0.16675326 0.18198784 0.08861001 -0.0037210684 -0.035916567
0.12627994 0.041485984 0.016603025 0.13007984 -0.03919449 0.0031218904 0.08455502 0.05185281
-0.11855034 -0.15262575 0.06737086 -0.11056256 0.06740161 0.00333776 0.055390585 -0.081888475
00000000: 4a65 433d f292 353e e1c5 19bd 1d23 e83d
00000010: f8fc 0bbe a73f 013e 57cc ee3c 5b1a 23bd
00000020: 8ac7 84bd e51f 193e c780 233e 5ec1 2a3e
00000030: 055b 3a3e 2a79 b53d 2bdd 73bb 401d 13bd
00000040: 874f 013e 35ed 293d 1103 883c a633 053e
00000050: 678a 20bd a198 4c3b 2f2b ad3d 9d63 543d
00000060: 85ca f2bd ed49 1cbe bcf9 893d a06e e2bd
00000070: db09 8a3d 52be 5a3b 3de1 623d 25b5 a7bd

blocks.0.layer_norm.weight f4 [32]
1.0501207 1.1543795 1.1016179 1.2954097 1.2673508 0.91546863 1.125962 1.0827787
1.1225014 1.1410542 0.8726124 1.2655206 1.1713533 1.3383459 1.2171855 1.259268
1.2137647 1.1478174 1.2304053 1.3935981 1.0958126 1.1516509 1.3262154 1.2171667
1.1241133 1.2680918 1.131833 1.142572 1.1523044 1.1584678 1.2592148 1.0790248
00000000: 5b6a 863f b5c2 933f d101 8d3f fccf a53f
00000010: 8d38 a23f 275c 6a3f 861f 903f 7e98 8a3f
00000020: 20ae 8f3f 100e 923f 8763 5f3f 94fc a13f
00000030: e8ee 953f eb4e ab3f bccc 9b3f b22f a13f
00000040: a45c 9b3f aeeb 923f ec7d 9d3f 6c61 b23f
00000050: 9643 8c3f 4c69 933f 6dc1 a93f 1ecc 9b3f
00000060: f2e2 8f3f d550 a23f e7df 903f cd3f 923f
00000070: b67e 933f ac48 943f f32d a13f 7c1d 8a3f

blocks.0.layer_norm.bias f4 [32]
0.010544617 0.086479194 0.089193866 0.24286789 0.2488338 -0.07323874 0.06465214 0.0459994
0.024343207 0.12412637 -0.15174887 0.2420797 0.16614573 0.2936141 0.020344699 0.2474549
0.10413084 0.054812927 0.15931174 0.2875888 0.05534746 0.08581002 0.25579137 0.13682689
0.08862875 0.25031 0.093423665 0.14814793 0.085801914 0.06452294 0.2492228 0.02442813
00000000: 54c3 2c3c 011c b13d 46ab b63d 5cb2 783e
00000010: 4ace 7e3e 31fe 95bd 5768 843d de69 3c3d
00000020: 686b c73c f735 fe3d 0e64 1bbe bee3 773e
00000030: 1b22 2a3e 9654 963e eda9 a63c d164 7d3e
00000040: 8d42 d53d 8583 603d 9e22 233e d73e 933e
00000050: 05b4 623d 2abd af3d 16f7 823e 591c 0c3e
00000060: fd82 b53d a228 803e e854 bf3d 17b4 173e
00000070: eab8 af3d 9a24 843d 4334 7f3e 801d c83c

last_layer.weight f4 [1, 32]
0.078898765 0.2308095 0.11003759 -0.3443095 -0.36514112 0.0061765043 0.15295456 0.18157913
0.12372387 0.30371422 -0.00028197406 -0.34518984 0.29161558 -0.3182812 -0.34536937 -0.3731727
0.30805582 0.26549873 0.35107765 -0.34885266 0.12947214 0.26939365 -0.3083887 0.37477404
0.11668899 -0.35041952 0.1364099 0.22117355 0.27994964 0.21619843 -0.35083574 0.043748178
00000000: ad95 a13d 5359 6c3e 635b e13d 5649 b0be
00000010: c7f3 babe 4664 ca3b 1fa0 1c3e e1ef 393e
00000020: f162 fd3d 6e80 9b3e ebd5 93b9 b9bc b0be
00000030: a34e 953e c1f5 a2be 41d4 b0be 7e10 bfbe
00000040: 7eb9 9d3e 73ef 873e 73c0 b33e d19c b2be
00000050: 5894 043e f7ed 893e 20e5 9dbe 62e2 bf3e
00000060: a3fa ee3d 306a b3be 09af 0b3e 527b 623e
00000070: 8f55 8f3e 1f63 5d3e bea0 b3be 4a31 333d
